…
 = tokenizer(prompt, return_tensors=\"pt\", add_special_tokens=False).to(\"cuda\")\n\n# generate configuration can be modified to your needs\ntokens = model.generate(\n    **inputs,\n    min_new_tokens=2,\n    max_new_tokens=1024,\n    do_sample=False,\n    num_beams=1,\n    temperature=float(0.3),\n    repetition_penalty=float(1.2),\n    renormalize_logits=True\n)[0]\n\ntokens = tokens[inputs[\"input_ids\"].shape[1]:]\nanswer = tokenizer.decode(tokens, skip_special_tokens=True)\nprint(answer)\n```\n\n## Model Architecture\n\n```\nRWForCausalLM(\n  (transformer): RWModel(\n    (word_embeddings): Embedding(65024, 4544)\n    (h): ModuleList(\n      (0-31): 32 x DecoderLayer(\n        (input_layernorm): LayerNorm((4544,), eps=1e-05, elementwise_affine=True)\n        (self_attention): Attention(\n          (maybe_rotary): RotaryEmbedding()\n          (query_key_value): Linear(in_features=4544, out_features=4672, bias=False)\n          (dense): Linear(in_features=4544, out_features=4544, bias=False)\n          (attention_dropout): Dropout(p=0.0, inplace=False)\n        )\n        (mlp): MLP(\n          (dense_h_to_4h): Linear(in_features=4544, out_features=18176, bias=False)\n          (act): GELU(approximate='none')\n          (dense_4h_to_h): Linear(in_features=18176, out_features=4544, bias=False)\n        )\n      )\n    )\n    (ln_f): LayerNorm((4544,), eps=1e-05, elementwise_affine=True)\n  )\n  (lm_head): Linear(in_features=4544, out_features=65024, bias=False)\n)\n```\n\n## Model Configuration\n\nThis model was trained using H2O LLM Studio and with the configuration in [cfg.yaml](cfg.yaml). Visit [H2O LLM Studio](https://github.com/h2oai/h2o-llmstudio) to learn how to train your own large language models.\n\n\n## Model Validation\n\nModel validation results using [EleutherAI lm-evaluation-harness](https:
…
n that the patient may be in respiratory distress. In the setting of chest pain without labored respirations, the tripod position may indicate acute pericarditis.\\nGold Document ID: 151', 'role': 'assistant'}]}\n```\n\n### Training Device(s)\n\n```\nname, pci.bus_id, vbios_version\nNVIDIA RTX A6000, 00000000:DA:00.0, 94.02.5C.00.02\n```\n\n### Usage\n\nGitHub: https://github.com/sshh12/multi_token\n\n\n### Model\n\n```\nMistralLMMForCausalLM.model =\n\nPeftModelForCausalLM(\n  (base_model): LoraModel(\n    (model): MistralLMMForCausalLM(\n      (model): MistralLMMModel(\n        (embed_tokens): Embedding(32000, 4096)\n        (layers): ModuleList(\n          (0-31): 32 x MistralDecoderLayer(\n            (self_attn): MistralAttention(\n              (q_proj): Linear(\n                in_features=4096, out_features=4096, bias=False\n                (lora_dropout): ModuleDict(\n                  (default): Dropout(p=0.05, inplace=False)\n                )\n                (lora_A): ModuleDict(\n                  (default): Linear(in_features=4096, out_features=64, bias=False)\n                )\n                (lora_B): ModuleDict(\n                  (default): Linear(in_features=64, out_features=4096, bias=False)\n                )\n                (lora_embedding_A): ParameterDict()\n                (lora_embedding_B): ParameterDict()\n              )\n              (k_proj): Linear(\n                in_features=4096, out_features=1024, bias=False\n                (lora_dropout): ModuleDict(\n                  (default): Dropout(p=0.05, inplace=False)\n                )\n                (lora_A): ModuleDict(\n                  (default): Linear(in_features=4096, out_features=64, bias=False)\n                )\n                (lora_B): ModuleDict(\n                  (default): Linear(in_features=64, out_features=1024, bias=False)\n                )\n                (lora_embedding_A): ParameterDict()\n                (lora_embedding_B): ParameterDict()\n              )\n              (v_proj): Linear(\n                in_features=4096, out_features=1024, bias=False\n                (lora_dropout): ModuleDict(\n                  (default): Dropout(p=0.05, inplace=False)\n                )\n                (lora_A): ModuleDict(\n                  (default): Linear(in_features=4096, out_features=64, bias=False)\n                )\n                (lora_B): ModuleDict(\n                  (default): Linear(in_features=64, out_features=1024, bias=False)\n                )\n                (lora_embedding_A): ParameterDict()\n                (lora_embedding_B): ParameterDict()\n              )\n              (o_proj): Linear(\n                in_features=4096, out_features=4096, bias=False\n                (lora_dropout): ModuleDict(\n                  (default): Dropout(p=0.05, inplace=False)\n                )\n                (lora_A): ModuleDict(\n                  (default): Linear(in_features=4096, out_features=64, bias=False)\n                )\n                (lora_B): ModuleDict(\n                  (default): Linear(in_features=64, out_features=4096, bias=False)\n                )\n                (lora_embedding_A): ParameterDict()\n                (lora_embedding_B): ParameterDict()\n              )\n              (rotary_emb): MistralRotaryEmbedding()\n            )\n            (mlp): MistralMLP(\n              (gate_proj): Linear(\n                in_features=4096, out_features=14336, bias=False\n                (lora_dropout): ModuleDict(\n                  (default): Dropout(p=0.05, inplace=False)\n                )\n                (lora_A): ModuleDict(\n                  (default): Linear(in_features=4096, out_features=64, bias=False)\n                )\n                (lora_B): ModuleDict(\n                  (default): Linear(in_features=64, out_features=14336, bias=False)\n                )\n                (lora_embedding_A): ParameterDict()\n                (lora_embedding_B): ParameterDict()\n              )\n              (up_proj): Linear(\n                in_features=4096, out_features=14336, bias=False\n                (lora_dropout): ModuleDict(\n                  (default): Dropout(p=0.05, inplace=False)\n                )\n                (lora_A): ModuleDict(\n                  (default): Linear(in_features=4096, out_features=64, bias=False)\n                )\n                (lora_B): ModuleDict(\n                  (default): Linear(in_features=64, out_features=14336, bias=False)\n                )\n                (lora_embedding_A): ParameterDict()\n                (lora_embedding_B): ParameterDict()\n              )\n              (down_proj): Linear(\n                in_features=14336, out_features=4096, bias=False\n                (lora_dropout): ModuleDict(\n                  (default): Dropout(p=0.05, inplace=False)\n                )\n                (lora_A): ModuleDict(\n                  (default): Linear(in_features=14336, out_features=64, bias=False)\n                )\n                (lora_B): ModuleDict(\n                  (default): Linear(in_features=64, out_features=4096, bias=False)\n                )\n                (lora_embedding_A): ParameterDict()\n                (lora_embedding_B): ParameterDict()\n              )\n              (act_fn): SiLUActivation()\n            )\n            (input_layernorm): MistralRMSNorm()\n            (post_attention_layernorm): MistralRMSNorm()\n          )\n        )\n        (norm): MistralRMSNorm()\n        (document_gte_lmm_projector): _MLPVectorProjector(\n          (mlps): ModuleList(\n            (0-3): 4 x Sequential(\n              (0): Linear(in_features=1024, out_features=4096, bias=True)\n              (1): GELU(approximate='none')\n              (2): Linear(in_features=4096, out_features=4096, bias=True)\n            )\n          )\n        )\n      )\n      (lm_head): Linear(in_features=4096, out_features=32000, bias=False)\n    )\n  )\n)\n```\n\n## Training procedure\n\n### Framework versions\n\n\n- PEFT 0.5.0\n"
    },
    "622": {
        "modelId": "LoneStriker/Yi-34B-8.0bpw-h8-exl2",
        "tags": [
            "license:other",
            "region:us",
            "text-generation",
            "safetensors",
            "pytorch",
            "transformers",
…
assical computers by exploiting phenomena such gluten interference and entanglement.\\<END\\>\n\nVECTOR: That sounds intriguing! How does this technology impact cryptography?\\<END\\>\n\nCOZMO: Well, it could revolutionize cybersecurity as we know it. With superposition, I can create secret codes that only my creators know, making our communication secure against eavesdropping and tampering. And with quantum algorithms, computationally intensive problems become tractable, much like solving puzzles on advanced AI platforms.\n\n\nModel file:\nGPT2LMHeadModel(\n  (transformer): GPT2Model(\n\t(wte): Embedding(50257, 1280)\n\t(wpe): Embedding(1024, 1280)\n\t(drop): Dropout(p=0.1, inplace=False)\n\t(h): ModuleList(\n  \t(0-35): 36 x GPT2Block(\n    \t(ln_1): LayerNorm((1280,), eps=1e-05, elementwise_affine=True)\n    \t(attn): GPT2Attention(\n      \t(c_attn): Conv1D()\n      \t(c_proj): Conv1D()\n      \t(attn_dropout): Dropout(p=0.1, inplace=False)\n      \t(resid_dropout): Dropout(p=0.1, inplace=False)\n    \t)\n    \t(ln_2): LayerNorm((1280,), eps=1e-05, elementwise_affine=True)\n    \t(mlp): GPT2MLP(\n      \t(c_fc): Conv1D()\n      \t(c_proj): Conv1D()\n      \t(act): NewGELUActivation()\n      \t(dropout): Dropout(p=0.1, inplace=False)\n    \t)\n  \t)\n\t)\n\t(ln_f): LayerNorm((1280,), eps=1e-05, elementwise_affine=True)\n  )\n  (lm_head): Linear(in_features=1280, out_features=50257, bias=False)\n)\nTotal number of parameters:  774030080\n\n"
    },
    "732": {
        "modelId": "yuiseki/tinyllama-coder-sql-en-v0.1",
        "tags": [
            "license:apache-2.0",
            "llama",
            "arxiv:1910.09700",
            "region:us",
            "text-generation",
            "text-generation-inference",
            "local-ai-hackathon-2024-03",
…
